data.pth (torch, 16106 bytes, 6 tensors)

l1.weight f4 [8, 203]
0	0xbf673170	-0.9030981
1	0x3dd19932	0.10234298
2	0x3e10946b	0.14119117
3	0xbfaa23af	-1.329214
4	0x3f41ecdc	0.75752044
5	0x4003530e	2.0519443
6	0xbe966056	-0.29370373
7	0x3fa5a731	1.2941648
8	0xbf513f6c	-0.817374
9	0xbf71db35	-0.9447511
10	0xbf8b5d8f	-1.0887927
11	0xbf597c89	-0.8495565
12	0x3e18543c	0.14875883
13	0x3c0ebe1a	0.008712316
14	0xbf828e39	-1.0199653
15	0x3ebad7ac	0.3649267
16	0xbf1acd60	-0.6046963
17	0x3eb7231e	0.3576898
18	0x3f87d3cc	1.061151
19	0xbdd0b4a5	-0.10190705
20	0x401ae5f5	2.4202855
21	0xbf08670d	-0.53282243
22	0xbd4e5b2d	-0.05037992
23	0x3e77afbd	0.24188133
24	0xbf86dab7	-1.0535496
25	0xbe707b34	-0.23484498
26	0x3fb45776	1.4089191
27	0xbf86a718	-1.0519743
28	0x3f03c561	0.5147305
29	0x3ef37d77	0.4755666
30	0xbe3c0c02	-0.18363956
31	0x3f2b1095	0.6682218
32	0xbf802bc8	-1.0013361
33	0xbe98b547	-0.29825804
34	0xbf8c8b70	-1.0980053
35	0x3f88503d	1.0649487
36	0x3c900aed	0.017583335
37	0xbfb9de78	-1.4521017
38	0x3ef55b6d	0.47921315
39	0xbf8d3c85	-1.1034094
40	0x3f138056	0.576177
41	0x400a8506	2.164369
42	0x3ed563ef	0.41677806
43	0xbf912483	-1.1339267
44	0x3f8b3438	1.0875311
45	0x3f04deab	0.51902264
46	0x3fa96dd0	1.3236637
47	0x3f406195	0.751489
48	0x3f964141	1.1738664
49	0x3e04ae2a	0.12957063
50	0xbfaf8103	-1.3711246
51	0xbd159c75	-0.036526162
52	0xbd8cc0ec	-0.068727344
53	0x3f9b51b6	1.2134311
54	0xbf04a79d	-0.5181826
55	0xc014f1ff	-2.3272703
56	0x3dda4e76	0.106594965
57	0xbd3343d7	-0.04376587
58	0xbf8c5aa7	-1.0965165
59	0x3f3dbb3b	0.74113816
60	0xbd1e47a2	-0.038642533
61	0x3f7d0958	0.9884238
62	0x3f82813e	1.0195692
63	0x3fe70f74	1.8051591
64	0xbfd288bf	-1.6447982
65	0xbf899bb9	-1.0750648
66	0x3f86c2a0	1.0528145
67	0xbeae0123	-0.33985242
68	0xbeb45f41	-0.35228923
69	0x3f7a3b29	0.9774652
70	0xbf8b784e	-1.0896089
71	0x3f394c0c	0.72381663
72	0x3f81706e	1.0112436
73	0x3f243e3c	0.6415746
74	0xbfa392dc	-1.2779193
75	0xbf5d9a68	-0.8656373
76	0xbee1fd7c	-0.44138706
77	0x3f9de870	1.2336559
78	0xbd7c2f63	-0.06156863
79	0xbf8cc4bb	-1.0997537
80	0xbed2abd8	-0.4114673
81	0xbced9cd1	-0.02900544
82	0x3e413c71	0.18870713
83	0xbe344ea1	-0.1760812
84	0x3ec8e2c2	0.39235502
85	0xbf3a2908	-0.7271886
86	0xbf1009b5	-0.5626481
87	0x3e9aea48	0.30256867
88	0xbf0eceeb	-0.5578448
89	0x3fcf4cb2	1.619528
90	0xbf8e93ab	-1.1138815
91	0x3f2e9a14	0.68203855
92	0x3f0157ad	0.5052441
93	0x3f9e297d	1.2356411
94	0x3f0d0b58	0.55095434
95	0x3f07c6b5	0.5303758
96	0x3f01baf6	0.50675905
97	0x3ed0fc69	0.40817574
98	0x3efaf0d7	0.4901187
99	0x3e752bd8	0.23942506
100	0xbde2b0ae	-0.11068855
101	0xbc836596	-0.01603965
102	0xbf239aed	-0.63908273
103	0x3f8864ea	1.0655797
104	0x3f2e4ea5	0.6808875
105	0xbd164acb	-0.036692422
106	0x3e53c08d	0.20678921
107	0xbd86ec8c	-0.065880865
108	0x3fa10c23	1.2581829
109	0xbf12327f	-0.571083
110	0x3f028566	0.509848
111	0x3d807e40	0.0627408
112	0x3cfa3364	0.030542083
113	0xbf732f8e	-0.9499444
114	0x3f00c555	0.50301105
115	0xbd84eb9d	-0.06490252
116	0x3f80207d	1.0009915
117	0x3f801e37	1.0009221
118	0x3eac6b6c	0.33675706
119	0x3f8bc75a	1.0920212
120	0x3f2cdeb8	0.6752734
121	0xbf7a132e	-0.97685516
122	0xbf8428a6	-1.0324905
123	0xbf38e660	-0.72226524
124	0x3ed0b656	0.4076411
125	0xbf9ad06b	-1.2094854
126	0xbf68f30a	-0.9099585
127	0xbf877895	-1.0583674
128	0x3f9bc29f	1.2168769
129	0xbeb3b26d	-0.35097066
130	0xbfbd6825	-1.4797407
131	0xbf073173	-0.5280983
132	0xbed26117	-0.410897
133	0xbf4f14e5	-0.8089126
134	0x3f051998	0.5199218
135	0x3e85e0e6	0.26148146
136	0xbe8feccb	-0.28110346
137	0xbde447a0	-0.11146474
138	0xbeced764	-0.40398705
139	0x3e11e042	0.14245704
140	0x3f0797b9	0.52965885
141	0x3f8edbf8	1.1160879
142	0x3fc5190d	1.539827
143	0xbcb35b43	-0.021894103
144	0xbf5d3798	-0.86412954
145	0xbf9bef37	-1.2182378
146	0x3f735b17	0.9506087
147	0x3fdb4c33	1.7132629
148	0x3e031b48	0.12803376
149	0xbf124ced	-0.5714863
150	0x3f4f4a66	0.809729
151	0xbf8ca68d	-1.0988327
152	0x3ef24cd8	0.47324252
153	0xbf0cfd33	-0.5507385
154	0xbf2f3b83	-0.6845018
155	0xbe432992	-0.19058827
156	0xbe2ecf2a	-0.17071214
157	0xbd6ab5bc	-0.05730222
158	0x40099aa7	2.1500642
159	0x3f781a2c	0.96914935
160	0x3e821757	0.25408432
161	0x3f2b687c	0.66956306
162	0x3e6e23f1	0.23255898
163	0x3f9aaca0	1.2083931
164	0xbea00af8	-0.31258368
165	0x3f044fa8	0.51684046
166	0xbfed9013	-1.8559593
167	0xbfea9ae0	-1.8328514
168	0x3f9d596c	1.2292914
169	0xbfa5d4be	-1.2955549
170	0x3f210c4c	0.6290939
171	0x3f10fdb2	0.5663711
172	0xbf870019	-1.0546905
173	0x3e63f49d	0.22261281
174	0x3f02aca6	0.5104469
175	0xbfc6d8a8	-1.5534868
176	0x3f2f77ec	0.6854236
177	0x3f2b6c4c	0.6696212
178	0x3ecd4fde	0.40099996
179	0x3fa998d7	1.3249768
180	0x3db660e8	0.08905202
181	0xbf3e43be	-0.74322116
182	0xbec776f5	-0.38957945
183	0xbe8f7e1f	-0.2802591
184	0x3effe46a	0.49978954
185	0x3e4baee4	0.19890934
186	0x3d6caada	0.057780124
187	0xbdbc5e72	-0.091977015
188	0x3f4d321b	0.8015458
189	0x3ede0cdf	0.43369195
190	0xbe3fa275	-0.18714316
191	0x3ee0cdde	0.43907064
192	0x3ebf9bbc	0.37423503
193	0xc00996c3	-2.1498268
194	0x3f66ef4d	0.90208894
195	0xbec1d00f	-0.3785405
196	0x3fd4fb29	1.6639148
197	0x3f83e31b	1.0303682
198	0xbd7f43d1	-0.062320534
199	0x3f00b17e	0.5027083
200	0x3fc1fed7	1.5155896
201	0x3f211877	0.62927955
202	0x3f14ed44	0.5817454
203	0x3f8c77ad	1.0974022
204	0xbe06d84a	-0.13168445
205	0x3fb8d4af	1.4439906
206	0x3fdfa1fd	1.747131
207	0x3f2338e7	0.637587
208	0xbff09ae8	-1.8797274
209	0xbf9bf4bc	-1.2184062
210	0xbe05a10e	-0.13049719
211	0x3fc31d5e	1.5243337
212	0xbe6f9826	-0.23397884
213	0x4029a2c2	2.650559
214	0x3f9464a7	1.1593217
215	0x3ee39a3d	0.44453612
216	0x3e86d688	0.2633555
217	0x3f7d4aaf	0.98942083
218	0x3e00dc09	0.12583937
219	0x4018c0e4	2.386773
220	0x3f91301f	1.134281
221	0x3ee10459	0.4394863
222	0xc00d414f	-2.2071111
223	0x3fe9b06f	1.8256968
224	0xbf14f569	-0.58186966
225	0xbea8d47e	-0.3297462
226	0x3f7ee70e	0.9957131
227	0x3ff121f5	1.8838488
228	0x3f07eb01	0.5309296
229	0xbeeb4a5b	-0.45955166
230	0xbf786d59	-0.9704185
231	0x3ddbb490	0.10727799
232	0x3f2fe4b0	0.68708324
233	0x3fc6b9f3	1.5525497
234	0xbfe08389	-1.7540141
235	0x3c015629	0.007894077
236	0x3fa7a10b	1.3096021
237	0xbf0f496f	-0.55971426
238	0xbf746370	-0.9546423
239	0x3e8f0507	0.27933523
240	0x404b4f43	3.1767128
241	0xbddeb037	-0.10873454
242	0x3f99b36b	1.2007879
243	0xbf8b9ddf	-1.0907553
244	0x3f55ed05	0.8356479
245	0x40358c23	2.8366783
246	0xbfc4a13e	-1.5361707
247	0x4054c62d	3.3245957
248	0xbf196ffb	-0.59936494
249	0x3ff075ce	1.8785951
250	0x3f1d310e	0.61402977
251	0x3ecf83d0	0.40530252
252	0x3fe1d732	1.7643797
253	0xbfb6e582	-1.428879
254	0x3e5a0fac	0.21295041
255	0x3f1eb2e0	0.6199169

l1.bias f4 [8]
0	0x3f877d2a	1.0585072
1	0x3f831f9d	1.0244023
2	0x3fce6b81	1.6126558
3	0x3f17b653	0.5926258
4	0x3ecb7542	0.39737898
5	0x3f804bfe	1.0023191
6	0x3f802cb0	1.0013638
7	0x3ef60c3e	0.48056215

l2.weight f4 [8, 8]
0	0x3f2c3a1f	0.67276186
1	0xc0043e16	-2.0662894
2	0x4002b9ef	2.0425985
3	0x3eec1b17	0.46114418
4	0xbf66ca0b	-0.90152043
5	0x401aa486	2.4162917
6	0xbd869145	-0.06570677
7	0x3f12c64f	0.57333845
8	0xbeb102cb	-0.34572443
9	0x3eff1fb1	0.49828866
10	0x3f8f681a	1.1203644
11	0xc022e88b	-2.5454433
12	0xbe80c1e1	-0.25147918
13	0x3f4e2bf4	0.8053582
14	0x3f0854d6	0.5325445
15	0x3f80cfa1	1.0063363
16	0x3ca6a931	0.020344349
17	0x3f1fbff7	0.6240229
18	0xbf7e62f2	-0.9936973
19	0x3e3f716e	0.18695614
20	0xbff0d52b	-1.8815054
21	0x3f93446c	1.1505256
22	0x4015e63a	2.342177
23	0x3f971949	1.1804591
24	0x4048be6b	3.1366222
25	0x3e884b03	0.2661973
26	0x3e839ec8	0.25707078
27	0xbea61c02	-0.32443243
28	0x4047c946	3.1216598
29	0xbf3f145e	-0.7464045
30	0x405eb81d	3.4799874
31	0x3fa51057	1.2895612
32	0xbfdbc0f5	-1.7168261
33	0x3fd0a9e6	1.6301849
34	0x3f77576a	0.9661776
35	0x4004ec46	2.076921
36	0x3fba80b7	1.4570531
37	0x3eb911ca	0.36146384
38	0xbfc8dde2	-1.5692713
39	0x3fe0873d	1.7541271
40	0x4024060b	2.5628688
41	0x4037894b	2.8677547
42	0x3f924fcf	1.1430606
43	0xbe610bc0	-0.21977139
44	0xbfc9b697	-1.5758847
45	0x3e1c424b	0.15259664
46	0xbe9b5129	-0.30335358
47	0xbfa262e3	-1.2686428
48	0x3fa39c0d	1.2781998
49	0x3daf8506	0.08570294
50	0xbe428008	-0.18994153
51	0x408f2105	4.4727807
52	0x3ec212a0	0.37904835
53	0x3fd05006	1.6274421
54	0xbfae16b7	-1.3600682
55	0x404ab323	3.1671836
56	0xc016d592	-2.3567853
57	0x3f8e60a6	1.1123245
58	0x400c4306	2.1915908
59	0x40473660	3.1126938
60	0xbfbab383	-1.4586033
61	0x3f89643b	1.0733713
62	0x3fd3908a	1.6528485
63	0xbfd7f612	-1.687197

l2.bias f4 [8]
0	0x3fb978d6	1.4490001
1	0xbf6008e4	-0.87513566
2	0xbecaf301	-0.39638522
3	0x3f09d7b5	0.5384477
4	0xbe8f3d15	-0.2797629
5	0x3fba61ab	1.4561056
6	0xbefcdec2	-0.493887
7	0x3f61073d	0.8790167

l3.weight f4 [80, 8]
0	0xbd9c6e87	-0.07638269
1	0xc0233c89	-2.5505698
2	0xbf99f821	-1.2028848
3	0xbe31b118	-0.17352712
4	0xbfbfbe74	-1.4979997
5	0x3eff54e5	0.49869457
6	0xbe4ff8cf	-0.20309757
7	0xbe9a076c	-0.30083787
8	0xbfd443a7	-1.6583146
9	0xbf88e8b6	-1.0696018
10	0xc05c4df1	-3.4422572
11	0xbf15ac75	-0.58466274
12	0x3f04b231	0.518344
13	0xbfaeebe7	-1.3665742
14	0xbc3b9d9f	-0.011451154
15	0x3dff6414	0.1247026
16	0xc031d61f	-2.778694
17	0xc08d2983	-4.4113173
18	0xc0873ef1	-4.2264333
19	0x3f252b36	0.6451906
20	0xbf0e221e	-0.5552081
21	0x3e80f562	0.25187212
22	0xbf67f9f3	-0.9061577
23	0x3e77ec0b	0.24211137
24	0x3f1f8ff2	0.6232902
25	0xc0d51b7a	-6.659604
26	0xc0b8efea	-5.7792864
27	0xbe23a2a6	-0.15980014
28	0xbffdc4dd	-1.9825703
29	0xbef916a7	-0.48650095
30	0x3ecb3050	0.39685297
31	0xbc611e40	-0.013740122
32	0xc011ebfb	-2.280028
33	0xbfa023b3	-1.2510895
34	0xc041832d	-3.0236313
35	0x3f0057c0	0.50133896
36	0xc03c37e7	-2.940912
37	0x3fa6055f	1.2970389
38	0xbf7cc7c2	-0.98742306
39	0xc04bd0f5	-3.1846287
40	0xc08804da	-4.250592
41	0x3e61fd62	0.22069314
42	0xc032c165	-2.7930539
43	0x3e93de85	0.28880706
44	0xbdb4df09	-0.08831603
45	0x3f165295	0.5871976
46	0xc05aa4f7	-3.4163187
47	0x3db85c3f	0.090019695
48	0xc001082f	-2.0161245
49	0xbf1a5252	-0.6028186
50	0xc037ae6c	-2.8700209
51	0x3f809890	1.0046558
52	0xc03596d4	-2.8373308
53	0x3ea2900c	0.31750524
54	0xc08f62d0	-4.480812
55	0xbe3a83fa	-0.18214408
56	0xc03f7564	-2.99154
57	0xbf5a229e	-0.8520907
58	0x3f8561af	1.0420436
59	0x3ef63012	0.4808355
60	0xc043a86d	-3.057155
61	0x3f0056b8	0.5013232
62	0xc018ed2a	-2.3894753
63	0xc0669ba1	-3.6032488
64	0x3ddad80d	0.1068574
65	0xbf314615	-0.6924756
66	0xc0aa9720	-5.330948
67	0x3f1cad85	0.6120227
68	0xbfa030a2	-1.2514842
69	0xbf81ba2e	-1.0134943
70	0xbf8b88fe	-1.0901182
71	0xbf78fd7b	-0.9726178
72	0xbd5e1d74	-0.054227307
73	0xbfdbd82d	-1.7175347
74	0xbe2f48cf	-0.17117618
75	0x3f501045	0.81274825
76	0xbf93b1b5	-1.1538607
77	0xbfb30fa2	-1.3989146
78	0xbe98393c	-0.29731166
79	0xc06543f8	-3.5822735
80	0xbe3f59de	-0.18686625
81	0xbf3c2db6	-0.7350725
82	0xc02a6a03	-2.6627204
83	0xbe2d857f	-0.16945456
84	0xbe9620c5	-0.29321876
85	0xbfec5bac	-1.8465476
86	0xbf4b192a	-0.7933527
87	0x3e877085	0.26453033
88	0xbff3bced	-1.904203
89	0xc07f0018	-3.9843807
90	0xbfc7df21	-1.5614969
91	0xbe81c2bc	-0.25343883
92	0x3ec7526b	0.38930067
93	0xbf233588	-0.6375356
94	0xbe935f37	-0.2878358
95	0x3ec97b25	0.39351764
96	0x3ed856ac	0.42253625
97	0xc0a6d635	-5.2136483
98	0xbf45178f	-0.7698907
99	0xbf63e373	-0.89018935
100	0xbebe7a4e	-0.37202686
101	0xbfd01799	-1.6257201
102	0x3ef02571	0.46903566
103	0xbe063680	-0.13106728
104	0xc00cdb28	-2.2008762
105	0xbfb02f75	-1.3764483
106	0xbfb71618	-1.4303617
107	0x3f133e8f	0.5751733
108	0xbf7a8bb6	-0.9786943
109	0xbd6e141d	-0.05812465
110	0xbbb07089	-0.005384509
111	0xbfc22117	-1.5166348
112	0xbface27e	-1.350662
113	0x3f2f530e	0.68486106
114	0x3d0899c3	0.033349764
115	0x3e1a799c	0.15085453
116	0xbf1f941f	-0.6233539
117	0xbfb9c63b	-1.451362
118	0xbf471295	-0.7776273
119	0xc046df39	-3.1073744
120	0x3eca6033	0.3952652
121	0xc01e6844	-2.4751139
122	0x3e7128f1	0.23550774
123	0xbfa59df3	-1.2938827
124	0xbeec44ee	-0.4614634
125	0xbfcccf53	-1.600077
126	0x3e8bbc6c	0.27292192
127	0xbfc601d0	-1.5469303
128	0xbfde8a22	-1.7385905
129	0xbf072f93	-0.5280697
130	0x3e003be7	0.12522851
131	0xbe915500	-0.28385162
132	0xbf9292b6	-1.1451023
133	0x3f15b2d3	0.5847599
134	0x3d9908ee	0.07472406
135	0xc072098c	-3.7818327
136	0xc06f0778	-3.7348309
137	0xbf1e2acb	-0.61784047
138	0xbf6fd405	-0.9368289
139	0xbd890291	-0.06689943
140	0x3e19de5f	0.15026234
141	0xbf1c0f69	-0.60961014
142	0xbf380124	-0.7187674
143	0xbe620789	-0.22073187
144	0xbfe0c06c	-1.7558722
145	0xc074a276	-3.8224158
146	0xbf87b818	-1.0603056
147	0x3f2dd30f	0.67900175
148	0x3d98b13a	0.07455678
149	0xc04162aa	-3.021647
150	0x3d8731bb	0.06601282
151	0xbeadb658	-0.3392818
152	0xbf8503c1	-1.0391771
153	0xc035e58e	-2.842136
154	0x3d65cf61	0.056105975
155	0x3dbcf73f	0.09226846
156	0xbec4cde5	-0.38438335
157	0xbe5c8163	-0.21533732
158	0x3eb5b57a	0.35490018
159	0xc04eb50f	-3.229801
160	0xbfb80a4f	-1.4378146
161	0xc00da49d	-2.2131722
162	0x3ea3d06c	0.3199495
163	0xbf6b704c	-0.91968226
164	0xbf1f734d	-0.6228531
165	0xbebf6f93	-0.37389812
166	0x3df7aa21	0.120929964
167	0xbf4141d2	-0.7549106
168	0xbf61bb76	-0.8817667
169	0xbb3c002a	-0.0028686621
170	0xbf11e181	-0.56984717
171	0xbfabe0c1	-1.3427964
172	0xbf7e18cf	-0.99256605
173	0x3e79fda1	0.24413158
174	0xbdba6763	-0.09101751
175	0xbfd24eb7	-1.6430272
176	0x3ef8ca55	0.48591867
177	0x3edeebc9	0.43539265
178	0xbe77a61c	-0.2418446
179	0xbef02c70	-0.46908903
180	0xbf7cefdd	-0.988035
181	0xc0618e01	-3.5242922
182	0xbfa09965	-1.2546812
183	0xbf2bf7ab	-0.67174786
184	0xbfa1c2c0	-1.2637558
185	0x3d36edf1	0.044660512
186	0xbf5f03a4	-0.8711493
187	0x3e62515f	0.22101353
188	0xbed5c0ed	-0.41748753
189	0xbf7df529	-0.9920221
190	0xbfd770f4	-1.6831346
191	0xbf522438	-0.82086515
192	0xc061a3a8	-3.5256138
193	0xbdac8bd2	-0.08425106
194	0x3f20c833	0.6280548
195	0x3e8d31e9	0.2757714
196	0xbfb7c96a	-1.4358342
197	0xbf373638	-0.71567106
198	0xbe00f95d	-0.12595125
199	0xc020b5dc	-2.5110998
200	0xbfe0379a	-1.7516968
201	0xbed18ab8	-0.40926147
202	0x3e22084e	0.1582348
203	0xbf9926ad	-1.1964928
204	0xbdd08921	-0.10182405
205	0xbf044226	-0.51663435
206	0xbfad7cbe	-1.3553693
207	0x3d17d367	0.037066843
208	0xbf37e22d	-0.7182949
209	0x3e0e096f	0.13870786
210	0x3eb04fe0	0.3443594
211	0xbec70f58	-0.38878894
212	0xc00c5dc3	-2.1932228
213	0xbef784ee	-0.48343605
214	0xbf2cea91	-0.6754542
215	0xbfcc3fa0	-1.5956917
216	0xbf247596	-0.6424192
217	0xbe57c4fb	-0.21071236
218	0xbed11c6c	-0.40841997
219	0xbf871aba	-1.0555031
220	0xbe514907	-0.20438014
221	0xbfd810f6	-1.6880176
222	0xbf062623	-0.5240194
223	0xbf4fe537	-0.8120913
224	0x3eddc0e4	0.43311226
225	0xbe9f0764	-0.31060326
226	0xc05476be	-3.3197474
227	0xbefe7275	-0.496967
228	0xbe7b75e0	-0.24556684
229	0xbf2f8b94	-0.68572354
230	0xbe94447d	-0.28958502
231	0xbfdc8f4e	-1.7231233
232	0xc065b084	-3.5888987
233	0xbfbbd63d	-1.4674755
234	0xc02cdc48	-2.700945
235	0xbe984e64	-0.29747307
236	0x3e971def	0.29515025
237	0x3f977075	1.1831194
238	0x3e8c26ee	0.2737345
239	0xbff09f76	-1.8798664
240	0xbd282da5	-0.041059155
241	0x3eb2dad9	0.34932593
242	0xc02ec207	-2.7305925
243	0xbf4f7da9	-0.8105112
244	0xbe8a12c6	-0.26967448
245	0x3f20870b	0.6270606
246	0xc053f96b	-3.3120983
247	0x3f0b7f8f	0.54491514
248	0xbed9571e	-0.42449278
249	0xbfa5bc45	-1.294808
250	0xbffb10a6	-1.9614456
251	0x3ee6decc	0.45091856
252	0x3ec80792	0.39068276
253	0xbfabe90c	-1.3430495
254	0xbee9bd72	-0.45652348
255	0xc02e7b88	-2.7262897

l3.bias f4 [80]
0	0x3f0d686f	0.5523748
1	0xbeb60203	-0.3554841
2	0xbe86ed8a	-0.26353103
3	0xbf27894f	-0.6544389
4	0x3e6ad2ac	0.22931927
5	0x3e7b2fe5	0.24529989
6	0xbf0e5f5f	-0.55614275
7	0x3d2b380e	0.041801505
8	0xbed624f2	-0.41825062
9	0x3f2eb05a	0.6823784
10	0xbf8354bd	-1.0260235
11	0xbf57f020	-0.84350777
12	0xbf8b94f6	-1.0904834
13	0xbf61fda6	-0.8827766
14	0xbeffadda	-0.49937326
15	0x3dfe090d	0.1240407
16	0xbe99ea9d	-0.30061808
17	0xbe5adb7c	-0.21372789
18	0x3ec778e1	0.3895941
19	0xbd3f6c7e	-0.046734326
20	0xbf7ac39e	-0.9795474
21	0xbf7e7098	-0.99390554
22	0x3dfb02ac	0.12256369
23	0xbdedfc59	-0.11620397
24	0xbe7f6be1	-0.24943496
25	0xbedcd563	-0.4313155
26	0xbf413a93	-0.7548
27	0xbf240c56	-0.64081323
28	0xbef70a31	-0.48249963
29	0x3ed0ba48	0.4076712
30	0x3e9d3b42	0.30709273
31	0x3e262a7d	0.16227145
32	0xbfc9cb94	-1.5765252
33	0xbf0574e7	-0.52131504
34	0xbeed7e7d	-0.46385565
35	0xbebbffe2	-0.3671866
36	0xbd14a30e	-0.036288314
37	0xbe341cd4	-0.17589122
38	0xbf195c94	-0.5990689
39	0xbcb4e6db	-0.022082737
40	0xbe26aa72	-0.16275957
41	0x3ed9dc23	0.42550763
42	0xbf1960ba	-0.5991322
43	0xbefb2678	-0.49052787
44	0x3ec41f50	0.3830514
45	0xbe07e3df	-0.1327052
46	0xbe1de357	-0.15418755
47	0xbec6b588	-0.38810372
48	0xbf0ca845	-0.5494426
49	0xbedc17c5	-0.42986885
50	0xbe5360c8	-0.20642388
51	0xbe540148	-0.20703614
52	0xbd8b39ab	-0.06798109
53	0xbf9809c4	-1.187798
54	0xbe7b2332	-0.24525145
55	0xbe566913	-0.2093852
56	0xbdccfed2	-0.100095406
57	0xbf13a4ab	-0.5767314
58	0xbf423b23	-0.75871485
59	0xbf157ef6	-0.5839685
60	0xbf6cd12e	-0.9250668
61	0xbf0762cd	-0.52885133
62	0xbc5be6e6	-0.01342175
63	0x3edac3d4	0.4272753
64	0xbed26ed8	-0.41100192
65	0xbcd6b176	-0.026207667
66	0x3f36e3c3	0.71441287
67	0x3d407e31	0.046995346
68	0xbfbd572f	-1.4792231
69	0x3d1c202f	0.03811663
70	0xbf193948	-0.5985303
71	0x3f1b8c62	0.6076108
72	0x3efd0e65	0.49425045
73	0x3dda1713	0.10648932
74	0x3e76f15c	0.24115509
75	0x3d16df2a	0.03683392
76	0xbf2b20f3	-0.6684715
77	0xbeef04df	-0.46683404
78	0x3e667672	0.22506121
79	0x3e71053a	0.2353715
