data.pth (torch, 15914 bytes, 6 tensors)

l1.weight f4 [8, 201]
0	0x3f9dbcdd	1.2323261
1	0xbe95fa44	-0.292925
2	0x3f3f0a34	0.74624944
3	0xbf992274	-1.1963639
4	0x3d8673e9	0.06565077
5	0x401296f6	2.290464
6	0x3eea3015	0.4573981
7	0x3f37e1c5	0.7182887
8	0xbe990f94	-0.29894698
9	0xbf78289b	-0.9693696
10	0x3f2bace5	0.6706069
11	0xbe15d329	-0.14631332
12	0x3f3acb38	0.7296634
13	0x3f0c25df	0.54745287
14	0x3f0e4909	0.5558019
15	0x3fd3a432	1.6534483
16	0x3edf5bda	0.43624765
17	0x3eb5466d	0.35405293
18	0xbfc7c3d6	-1.5606639
19	0xbf95c033	-1.169928
20	0x3f333957	0.7000937
21	0x3f4676ea	0.775252
22	0x3eb9d3aa	0.362943
23	0x3ffbbb33	1.9666504
24	0x3f353ae4	0.70792985
25	0x3e5aba3d	0.21360107
26	0xbf5dab8a	-0.8658987
27	0x3f7dcc3d	0.9913977
28	0x3f0ad06f	0.54224294
29	0xbf88837f	-1.066513
30	0x3e239e34	0.15978318
31	0x3ffb75c1	1.9645311
32	0x3f34401f	0.7041034
33	0x3f55f5fb	0.8357846
34	0x3f90f7e9	1.1325656
35	0x3f772799	0.96544796
36	0x3df159ab	0.11784681
37	0x3efc6ef0	0.4930339
38	0x3fc7c33c	1.5606456
39	0x3ff9554b	1.9479154
40	0xbfa2ba8e	-1.2713182
41	0xbf09cfe2	-0.5383283
42	0xbecdf62e	-0.40226883
43	0x3ee074a1	0.4383898
44	0x3ebe0fc4	0.37121403
45	0x3e3d3568	0.18477404
46	0x3ebdec81	0.370945
47	0x3fab9f97	1.3408078
48	0x3fb6bb30	1.4275875
49	0xc00731c7	-2.1124132
50	0x3f399ff8	0.7250972
51	0xbfedacd3	-1.8568367
52	0x3de77c1a	0.11302967
53	0x3e37ac6d	0.17936869
54	0x3f99c853	1.2014259
55	0x3ef637d5	0.4808947
56	0x3e9d6a49	0.30745152
57	0x3f67dc21	0.90570265
58	0x3f86e99a	1.054004
59	0x3e291c8c	0.16514796
60	0x3f258486	0.6465534
61	0x3f34d0a2	0.7063085
62	0x3d1ec851	0.038765255
63	0x3fa4e050	1.2880955
64	0xbfa47571	-1.284834
65	0x40076307	2.1154191
66	0x3f2c8498	0.6738982
67	0x3f977711	1.1833211
68	0x3ff3d71a	1.9050019
69	0x3f028daa	0.5099741
70	0x3e80359b	0.25040898
71	0x40015dd6	2.0213523
72	0x3d42392b	0.0474178
73	0xbf651e3e	-0.8949927
74	0xbf8863ac	-1.0655417
75	0x3cb8105f	0.022468744
76	0x3eb4b4db	0.35294232
77	0x3f06d1a6	0.5266365
78	0x3f3d0a19	0.7384353
79	0x3f01701e	0.505617
80	0x3f2f7ff0	0.6855459
81	0x3f4943e6	0.7861923
82	0x3eb8da72	0.3610416
83	0x3e422b12	0.18961743
84	0x3f4e713d	0.8064154
85	0x3ede4026	0.43408316
86	0x3ea7fd2d	0.32810345
87	0xbdba944b	-0.09110316
88	0xbf82e6d9	-1.0226699
89	0x3fde61a8	1.7373552
90	0x3f9eb12e	1.2397821
91	0x3f7773c1	0.96661
92	0x3f9e0474	1.2345109
93	0x3f838845	1.0275961
94	0x3f830a2c	1.0237479
95	0x3f7152f6	0.94267213
96	0x3f642954	0.8912556
97	0x3f79cc45	0.97577316
98	0x3fbbe98c	1.4680648
99	0x3f45f75a	0.77330554
100	0x3f714b5b	0.9425561
101	0xbf79ad02	-0.97529614
102	0x3debd2e8	0.115148365
103	0x3e921836	0.28534096
104	0xbf782b13	-0.96940726
105	0xbfbd38c7	-1.4782952
106	0x3fae979b	1.3640016
107	0x3f0d9f0c	0.5532081
108	0xc00334dd	-2.0501015
109	0x3f71bd87	0.9442982
110	0x3f50e7bc	0.816036
111	0x3eba4d42	0.36387068
112	0x3ebb916e	0.36634392
113	0xbcdd1966	-0.02698965
114	0x3eb9188d	0.36151543
115	0x3f81d375	1.0142657
116	0x3f825df4	1.0184922
117	0x3ecd725e	0.40126318
118	0x3e2a9eec	0.16662186
119	0x3fb3ac06	1.4036872
120	0x3f069b58	0.52580786
121	0x3f079442	0.529606
122	0x3c2c0dba	0.01050132
123	0xbe9b8c0e	-0.3038029
124	0x3fb53e53	1.4159645
125	0x3e6b2337	0.22962652
126	0xbe9b8113	-0.30371913
127	0x3f787b52	0.9706317
128	0xbdb8b8dd	-0.09019635
129	0x3f8e6bf2	1.1126692
130	0xbe54438c	-0.20728892
131	0x3f3c751f	0.7361621
132	0x3f7884c2	0.9707757
133	0x3cd87813	0.026424443
134	0x3f276946	0.6539501
135	0xbf302efb	-0.68821687
136	0xbfc121c4	-1.508843
137	0x3f219790	0.6312189
138	0x3f7f652a	0.9976374
139	0x4011e7a7	2.279764
140	0x3fcc8fa5	1.5981337
141	0x3f756573	0.95857924
142	0xbf5f5741	-0.87242514
143	0x3fb61459	1.422496
144	0x3d0aab53	0.033854794
145	0xbecb47a5	-0.39703098
146	0x3f83f9b3	1.0310577
147	0x3f389d17	0.721147
148	0x3fa0f8af	1.2575892
149	0x3f2b597b	0.6693341
150	0x3f0bb867	0.5457825
151	0xbdf10546	-0.11768584
152	0x401c0563	2.4378288
153	0xbd2060d6	-0.03915485
154	0x3e701963	0.23447184
155	0xbe80c903	-0.2515336
156	0x3fdd74cd	1.730127
157	0x3edefd3f	0.43552586
158	0x3f27d9dd	0.6556681
159	0x3f14e8b4	0.58167577
160	0x3f87ed1a	1.0619233
161	0x3e892e84	0.267933
162	0x40186ed7	2.3817651
163	0xbe27af50	-0.1637547
164	0x3fa30e8e	1.2738817
165	0x3fd85ad0	1.6902714
166	0x3e17b5df	0.14815472
167	0x3f2c5df7	0.6733088
168	0x3f0b53c2	0.5442468
169	0x3f156145	0.58351547
170	0x3e399732	0.18124083
171	0x3f380e66	0.7189697
172	0x3e86cb4a	0.26326972
173	0xbf2053f8	-0.62628126
174	0x3e5553a3	0.20832686
175	0xbf07078c	-0.5274589
176	0xbeaeb7ff	-0.34124753
177	0xbf8a7740	-1.0817642
178	0xbeac6298	-0.3366897
179	0xbf0dcf11	-0.55394083
180	0x3f122942	0.57094204
181	0x3f142b04	0.57878137
182	0x3f38cebf	0.7219047
183	0x3f863d76	1.0487506
184	0x3f81742a	1.0113575
185	0x3f42bfb8	0.7607379
186	0xbf31c038	-0.6943393
187	0xbf6dc7bc	-0.92882895
188	0x3f675e82	0.9037858
189	0x3f9975ad	1.1989037
190	0xbeb7a718	-0.3586967
191	0x3fbd7193	1.4800285
192	0x3ef8c452	0.4858728
193	0x3f0b4587	0.54402965
194	0x3fba1817	1.4538602
195	0x3e1c3538	0.15254676
196	0x3dfd4de8	0.12368375
197	0x3f063e68	0.52438974
198	0x3f5378ec	0.8260639
199	0xbea7a546	-0.3274328
200	0x3f96d880	1.178482
201	0xbf1eea8a	-0.6207663
202	0xbd3d3442	-0.046192415
203	0x3e10d66b	0.14144294
204	0x3e7996f0	0.24373984
205	0x3f500629	0.812594
206	0xbe87ad7e	-0.26499552
207	0x40025a10	2.036747
208	0x3f9203c1	1.1407396
209	0x3e8c81ea	0.27442867
210	0x3f160e53	0.5861561
211	0x3e5b22e4	0.21400028
212	0x3debe124	0.115175515
213	0xbe8530b9	-0.26013735
214	0xbf68a302	-0.9087373
215	0x3e667edc	0.2250933
216	0x3e8edd2d	0.2790312
217	0x3eaa8bad	0.3330969
218	0x3f60bedc	0.8779123
219	0xbf140fa0	-0.5783634
220	0x3df5b9ba	0.11998315
221	0x3de9b17d	0.11410806
222	0xbf9120ac	-1.1338096
223	0x3d47c723	0.048773896
224	0xbc9c33a4	-0.019067593
225	0x3ea4257c	0.32059848
226	0xbf80fee5	-1.0077788
227	0x3e772e81	0.24138834
228	0x3fa5f118	1.2964201
229	0x3d85e9c0	0.06538725
230	0x3f9df501	1.2340394
231	0xbfde9afa	-1.7391045
232	0xbebd438f	-0.36965606
233	0x3ede4c6f	0.4341769
234	0xbe1a0d2b	-0.15044086
235	0xbe054a8a	-0.13016716
236	0xbe8c9062	-0.27453905
237	0xbf6c839e	-0.9238833
238	0x3de8f5ce	0.113750085
239	0xbea826d2	-0.32842118
240	0xbf06d71e	-0.5267199
241	0xbf95476b	-1.166242
242	0xbf9b5f27	-1.2138413
243	0xbf326e43	-0.69699496
244	0xbfc9865b	-1.5744127
245	0x3d28d60c	0.041219756
246	0x3e5623fa	0.20912161
247	0x3e860436	0.26175088
248	0x3f63e362	0.89018834
249	0x3c553688	0.01301349
250	0x3f06a458	0.5259452
251	0xbe8d73d7	-0.2762744
252	0x3fdd01d7	1.7266186
253	0xbe60ca0d	-0.21952076
254	0x3e09ec33	0.13469009
255	0x3fd16f87	1.636216

l1.bias f4 [8]
0	0x401ce5b2	2.4515195
1	0x3fc1e3c4	1.5147634
2	0x3fce60c0	1.6123276
3	0x3fdcc557	1.7247723
4	0x3f726927	0.946917
5	0x3f9c013b	1.2187876
6	0x3fd42a8e	1.6575487
7	0x3f8910ad	1.0708214

l2.weight f4 [8, 8]
0	0x40173d86	2.36313
1	0xc038d4d3	-2.8879898
2	0x3fbeb287	1.4898232
3	0x40129443	2.2902992
4	0x3face10b	1.3506178
5	0xbfe8e910	-1.8196125
6	0x3fd1ad7e	1.6381071
7	0x3fe31098	1.7739439
8	0x3e2856c1	0.16439344
9	0x3f36f6f6	0.7147058
10	0x3eda576b	0.4264482
11	0xbf6433f0	-0.8914175
12	0xc0123a26	-2.284799
13	0x3f490887	0.78528637
14	0x40327ce9	2.788874
15	0x406b5a44	3.6773844
16	0xbff17354	-1.886332
17	0x3f783f61	0.9697171
18	0x3fccf134	1.6011109
19	0x3fb4d9e5	1.4128996
20	0x402c3739	2.6908705
21	0x40225b5a	2.5368257
22	0x3ff50d2a	1.9144642
23	0x3fcbc447	1.5919274
24	0xbee2b650	-0.44279718
25	0x3ffc798f	1.9724597
26	0x407c9d33	3.9470947
27	0x3fc41f54	1.532206
28	0x3f3c7732	0.7361938
29	0xbf52b3f6	-0.8230585
30	0xbd8a9470	-0.067665935
31	0xbf6815c6	-0.90658224
32	0x401139c1	2.26915
33	0xbde8e680	-0.113720894
34	0x3fb282d0	1.3946171
35	0xc03541d4	-2.8321428
36	0x3e14afea	0.14520231
37	0xbedc213d	-0.4299411
38	0x40375fce	2.8652225
39	0x3ef14479	0.47122553
40	0x404a3366	3.159387
41	0xbd60215f	-0.054719325
42	0x3f452eec	0.7702472
43	0x3f5d1bba	0.8637043
44	0x40714b43	3.7702186
45	0x403730e6	2.8623595
46	0xc0104abd	-2.2545617
47	0x405f5377	3.4894693
48	0x3fa39212	1.2778952
49	0x4028840e	2.63306
50	0x400dc5a9	2.2151892
51	0xbf366932	-0.71254265
52	0xbfec5243	-1.8462604
53	0x4082a247	4.0823092
54	0x3e9c8d6b	0.30576643
55	0xbf82be7f	-1.0214385
56	0x4047bbfc	3.1208487
57	0x40469577	3.1028726
58	0xbf8dc6c2	-1.1076281
59	0x40892856	4.286174
60	0xbeabd7ee	-0.3356318
61	0xbe638840	-0.22219944
62	0x40450fe3	3.0790946
63	0xbfe8c362	-1.8184626

l2.bias f4 [8]
0	0x3f7a68e2	0.9781629
1	0x3eee68b7	0.46564266
2	0xbdaf4076	-0.08557217
3	0x3f845e01	1.0341188
4	0x3f6bd55c	0.92122436
5	0x3fab006b	1.3359503
6	0x3f59d1f5	0.85085994
7	0x3fd63782	1.673569

l3.weight f4 [77, 8]
0	0xbe340779	-0.17580976
1	0xbf625244	-0.8840678
2	0x3e8bc3e5	0.27297893
3	0x3f551af9	0.8324428
4	0xc0044c12	-2.067143
5	0xbd4baf5c	-0.049727783
6	0xbec56db3	-0.38560256
7	0xbfe9aaa0	-1.8255196
8	0xbe12ab68	-0.14323199
9	0x3e7e3c0e	0.24827597
10	0xbf2dcab1	-0.6788741
11	0xbe43e7b6	-0.1913136
12	0xc0771c4c	-3.861102
13	0xbf2e7c39	-0.681583
14	0x3e4257c1	0.18978788
15	0x3ecdbb7f	0.4018211
16	0xbec88ab8	-0.39168334
17	0xbff7ba8c	-1.9353805
18	0x3e270c08	0.16313183
19	0x3ae04a58	0.0017112
20	0xc03753d4	-2.8644915
21	0xbf49814e	-0.7871293
22	0xbfc6d281	-1.5532991
23	0x3f80f192	1.0073721
24	0xbeff06ed	-0.4980997
25	0x3e287465	0.16450651
26	0x3d99f0a1	0.075165994
27	0x3f354e3e	0.70822513
28	0xbe524ec6	-0.20537862
29	0xc07344b0	-3.8010674
30	0x3ea47a34	0.32124484
31	0x3daab29b	0.083348475
32	0x3edd326a	0.43202525
33	0x3f0c7510	0.54866123
34	0xbede70d5	-0.4344546
35	0xbeb58f97	-0.35461113
36	0xbeae880f	-0.3408818
37	0xbfe84809	-1.8146983
38	0xc024bb61	-2.5739367
39	0x3f210545	0.62898666
40	0xbfd437b5	-1.65795
41	0x3dddd70b	0.10832032
42	0x3dd0e55e	0.10199998
43	0x3d2fdc18	0.042934507
44	0xc0133c13	-2.3005416
45	0xc032767e	-2.7884822
46	0x3ea4f91c	0.32221305
47	0x3f5bfb8e	0.85930717
48	0xbfaa2207	-1.3291634
49	0x3f3585d2	0.7090732
50	0xbde670d7	-0.11251991
51	0xc02861b4	-2.6309633
52	0xbed7f558	-0.4217937
53	0xbf00e69b	-0.50351876
54	0xbe748788	-0.23879826
55	0x3d97829c	0.07397959
56	0xc02c0334	-2.6876955
57	0xbfc5b605	-1.5446173
58	0xbeea6767	-0.45782015
59	0x3ec78984	0.38972104
60	0xbfe77cb8	-1.8084936
61	0xbf709d81	-0.9399033
62	0x3e7b7a93	0.24558477
63	0x3f8a5f77	1.0810384
64	0x3ea0b634	0.3138901
65	0x3d9ff307	0.07810026
66	0xc0362111	-2.8457682
67	0x3e9d780a	0.30755645
68	0x3bf28f4e	0.007402337
69	0xbe74ec29	-0.23918213
70	0x3eb0b90f	0.34516189
71	0xbf57f2a3	-0.8435461
72	0xbf580ac6	-0.8439144
73	0xbfec4a87	-1.8460244
74	0xbf5c10aa	-0.8596293
75	0x3dbec529	0.09314949
76	0xc0463c3e	-3.097427
77	0x3eade4cd	0.33963624
78	0xbd5a3f62	-0.053283103
79	0x3e8cb2fd	0.27480307
80	0xbe7533f6	-0.23945603
81	0xbf454654	-0.7706044
82	0xbf665d45	-0.8998607
83	0xbdf754cd	-0.12076721
84	0xbfc5c876	-1.5451801
85	0x3d057393	0.032580923
86	0xbe4e93eb	-0.20173614
87	0xbdf9fc67	-0.12206345
88	0x3d4af629	0.049551163
89	0xbf91102a	-1.1333058
90	0xbe5e2d02	-0.21696857
91	0xbe81fc84	-0.25387967
92	0xc04f77f4	-3.2416964
93	0x3ee012a9	0.43764237
94	0xbfbb399c	-1.4626956
95	0xbdd66914	-0.10469261
96	0xbe0c191d	-0.13681455
97	0xbf6ac46d	-0.9170597
98	0xbdb2f469	-0.08738024
99	0x3e84d4da	0.25943643
100	0xbbd03d92	-0.006354996
101	0xbfa66f2f	-1.300268
102	0xbdbcf7bb	-0.09226938
103	0xbf0db0cd	-0.553479
104	0xc0313f46	-2.769487
105	0x3ef5e2db	0.4802464
106	0xbde0b14b	-0.10971316
107	0x3dfc882a	0.12330659
108	0xbea8effd	-0.32995597
109	0x3e9c1521	0.3048487
110	0x3f1c9412	0.6116344
111	0xc0305934	-2.7554445
112	0x3e45d6ad	0.19320174
113	0x3ebaa8b6	0.3645684
114	0xbea347d9	-0.31890753
115	0xbf854f2f	-1.041479
116	0xbd35d213	-0.044389796
117	0xbf5fb78c	-0.87389445
118	0x3e857fdf	0.2607412
119	0xbfa168c7	-1.26101
120	0xbdec5cb1	-0.11541117
121	0x3f0d69af	0.55239385
122	0xbf310a0c	-0.69155955
123	0xbf86d8c4	-1.0534902
124	0x3f172a70	0.5904913
125	0xc04bb637	-3.1829965
126	0x3da5521b	0.08072301
127	0x3f39a9de	0.7252482
128	0x3ee16abe	0.4402675
129	0xbcdca759	-0.026935266
130	0xbe8b92c0	-0.272604
131	0xbecd2b1c	-0.40071952
132	0x3eb2dc2b	0.349336
133	0xbf55e039	-0.8354526
134	0xc014964a	-2.321673
135	0xbe4ac50e	-0.19801733
136	0x3f3bad75	0.7331155
137	0xbf7b9ce3	-0.98286265
138	0xbfca49e2	-1.5803797
139	0xbfda09ad	-1.7034203
140	0xbf01ad00	-0.506546
141	0x3f6b8155	0.9199422
142	0xc01c461b	-2.441779
143	0xbe824741	-0.25444987
144	0xbe4c0390	-0.19923234
145	0x3e227731	0.1586578
146	0x3d124853	0.035713505
147	0x3ea48117	0.32129738
148	0x3ec0bb62	0.37642962
149	0xbd56504f	-0.052322682
150	0xbe8f6708	-0.28008294
151	0xc0695c42	-3.646256
152	0x3e780361	0.24220039
153	0x3da33e66	0.07970886
154	0xbe81d1c5	-0.25355354
155	0x3e8ac006	0.27099627
156	0x3f49b45a	0.7879082
157	0xbf14769c	-0.57993484
158	0xbfb6840e	-1.425905
159	0xbfeb0fce	-1.8364198
160	0x3e07a6f3	0.1324728
161	0x3eec19dd	0.46113482
162	0xbf3bd142	-0.7336618
163	0xbf52aace	-0.8229188
164	0x3e7c1582	0.2461758
165	0x3ec97fac	0.39355218
166	0xc041a6c0	-3.0258026
167	0xbf518917	-0.8184981
168	0xbf98689c	-1.1906924
169	0x3f5b1dd6	0.855924
170	0x3f248aed	0.64274484
171	0xbc230119	-0.009948992
172	0x3ec4af5e	0.38415045
173	0xbfe40680	-1.7814484
174	0x3d1a8d70	0.03773254
175	0xbfc04b4f	-1.5022982
176	0xbf6a8d0f	-0.9162149
177	0x3efd489c	0.4946946
178	0x3e83a86f	0.25714442
179	0xbe9c91cc	-0.30579984
180	0xbf8505f6	-1.0392444
181	0xbfcb03de	-1.5860555
182	0xbe89c2f6	-0.26906556
183	0x3e2e66a5	0.17031343
184	0xbe91859a	-0.28422242
185	0x3e9e4afe	0.3091659
186	0x3e888e90	0.26671267
187	0xc01b0ed9	-2.4227812
188	0x3ee02ea7	0.43785593
189	0xbd903ecc	-0.070432276
190	0xbf2c408d	-0.67285997
191	0xbfc3ee43	-1.5307087
192	0xbfc9e7ae	-1.5773828
193	0xbfa45a26	-1.2840011
194	0xbf300858	-0.6876273
195	0x3e9fc61f	0.31205842
196	0x3cdc16ff	0.026866434
197	0xbd9356da	-0.071943
198	0x3e3466d0	0.17617345
199	0xbf322d57	-0.69600433
200	0xbfd867df	-1.6906699
201	0xbe0c3317	-0.13691364
202	0xbf03e1c6	-0.5151638
203	0xbf416818	-0.7554946
204	0xbe9ab152	-0.3021341
205	0xbfd1d5cd	-1.6393372
206	0x3f27ec98	0.6559539
207	0x3f1f4c16	0.6222547
208	0xbea77a79	-0.32710627
209	0x3edd8818	0.43267894
210	0x3e8c8e07	0.27452108
211	0x3e9e9f4c	0.3098091
212	0xbf466cfc	-0.77510047
213	0xbf29b0b9	-0.6628528
214	0xbf1d904c	-0.61548305
215	0xbfc31d3e	-1.5243299
216	0x3f19f678	0.60141706
217	0xbf8a73e7	-1.081662
218	0xbfbc091a	-1.4690278
219	0xbed2d2cc	-0.4117645
220	0xbe13cf53	-0.14434557
221	0xbf1cb693	-0.61216086
222	0xbf50a75c	-0.8150537
223	0x3e7db4ed	0.24776049
224	0x3e29c330	0.16578364
225	0x3ef4a285	0.47780243
226	0xc0152dca	-2.3309197
227	0xc01f0abd	-2.4850304
228	0x3f77c10c	0.9677894
229	0x3ef24100	0.47315216
230	0xbf99f325	-1.2027327
231	0xbee2ac71	-0.44272187
232	0xbf553a03	-0.83291644
233	0xbde22409	-0.110420294
234	0xbf20f126	-0.62867963
235	0xbfc55026	-1.5415084
236	0xbe783333	-0.24238281
237	0x3e8efb90	0.27926302
238	0xbebaaae2	-0.36458498
239	0xbee822f1	-0.45339158
240	0x3d504408	0.05084613
241	0xbf8cb5ad	-1.0992943
242	0xbf7440d2	-0.9541141
243	0x3ed11bc9	0.4084151
244	0xbe6cf2b8	-0.23139465
245	0x3dbaa89c	0.09114191
246	0x3e05a66b	0.13051765
247	0xc001d5f5	-2.028684
248	0xbf893568	-1.0719423
249	0xbf37fdde	-0.71871746
250	0x3e3b5f82	0.18298152
251	0x3f34c8d1	0.7061892
252	0xbe255c2b	-0.1614844
253	0xbea67e8a	-0.32518417
254	0x3f095ed7	0.5366034
255	0xc030c3d5	-2.7619526

l3.bias f4 [77]
0	0x3baaaef1	0.005208843
1	0xbd10b9da	-0.03533349
2	0x3f005b24	0.5013907
3	0x3d9e3880	0.0772562
4	0x3a0bdd30	0.00053353887
5	0x3e837530	0.25675344
6	0x3ebfa631	0.3743148
7	0x3da279a0	0.079333544
8	0xbdcaf995	-0.09910885
9	0xbe91897a	-0.284252
10	0xbe175962	-0.1478019
11	0xbe979fb7	-0.2961404
12	0xbdb03372	-0.086035624
13	0xbe1e7960	-0.15475988
14	0xbe39a23c	-0.18128294
15	0xbe4f8ee8	-0.20269358
16	0xbe654e21	-0.22393085
17	0x3e4689c3	0.1938849
18	0xbe698548	-0.22804749
19	0x3e892baf	0.2679114
20	0x3e8edc9b	0.27902684
21	0x3b9b621f	0.0047419216
22	0x3da76576	0.08173649
23	0x3ea1f3fe	0.31631464
24	0xbe056cc7	-0.13029777
25	0xbeb7378c	-0.35784566
26	0xbef0d4a6	-0.47037238
27	0xbf0a32ba	-0.5398365
28	0x3d963250	0.07333815
29	0xbe6c89a0	-0.23099375
30	0xbe651b58	-0.22373712
31	0xbcc2dcb2	-0.023786876
32	0x3eb23bb7	0.34811184
33	0xbe9cbace	-0.3061127
34	0xbf4c955a	-0.7991539
35	0xbec50e9c	-0.3848771
36	0xbf19a593	-0.6001827
37	0xbead8759	-0.33892325
38	0x3d9cdea5	0.076596536
39	0xbf0615f1	-0.5237723
40	0xbe087d20	-0.13328981
41	0x3c30d090	0.010791913
42	0x3e38f734	0.1806305
43	0xbebb48af	-0.3657889
44	0xbf02a6f4	-0.51036
45	0xbe3493ee	-0.17634556
46	0xbead27e4	-0.33819497
47	0xbea3ce55	-0.31993356
48	0xbe6d162f	-0.23152994
49	0xbd30992c	-0.043114826
50	0x3e5763c5	0.21034153
51	0xbb75163d	-0.0037397288
52	0xbea77c0c	-0.32711828
53	0xbe184b92	-0.14872578
54	0xbb456c0f	-0.0030124222
55	0x3d9ddaa4	0.07707718
56	0x3de7c813	0.11317458
57	0x3e7c0c3e	0.24614045
58	0xbef8f2e9	-0.48622826
59	0xbece8d4c	-0.40342176
60	0x3e8c75fb	0.27433762
61	0x3e983321	0.29726508
62	0xbea439c6	-0.32075328
63	0x3e69a10d	0.22815342
64	0x3eb7dcaa	0.3591054
65	0x3f546106	0.82960546
66	0x3e886669	0.26640633
67	0xbce13d73	-0.027495122
68	0x3e64ac9b	0.22331469
69	0x3e5bcc17	0.21464573
70	0xbea7a0ac	-0.3273977
71	0x3e5d6f3b	0.21624462
72	0xbea5086f	-0.32232997
73	0xbe0aec1e	-0.13566634
74	0xbe235a3b	-0.15952389
75	0x3d14046f	0.03613704
76	0xbd7bdc90	-0.06148964
